data.pth (torch, 4159 bytes, 6 tensors)

l1.weight f4 [8, 33]
00000000: e7d1 883f 7cc9 0dbd 8ca0 3e3e 16ff 4e3e
00000010: de8d 13bf 2229 983e 2b50 dabe baed 3e3f
00000020: 5609 b2be 7040 ac3d 7e22 1dbf d411 4c3e
00000030: 1f01 cabe 547d d53e 1f90 df3e a5bb 02bf
00000040: e834 ba3e 406b 213e a516 06bf 7100 61be
00000050: da96 1fbe 8fd6 903e 4733 d13d e898 613e
00000060: 0c74 24bd 15b9 4ebe 8458 733f a9be 9f3f
00000070: aa18 a1be bb40 5e3f 1f14 7a3f 9917 333e
00000080: faa0 e23e 80ff 96be c615 853e 6b82 4a3e
00000090: 2bad 963e b21a 263f 6407 8e3e a4c9 fe3e
000000a0: 3d70 e23d 80f9 a23e 1737 983e 0ed0 023f
000000b0: 558a d73e 47af b0be d6db 183f 5b9b 223f
000000c0: 97f4 563e 8240 c23e adc0 e53e 2605 c63e
000000d0: 4930 993e 75e8 463e dde2 76bd 310c 3d3e
000000e0: 92bf 313f 8f78 c43e 4fc7 ce3e c03d 4a3e
000000f0: fc4f c93d a051 1c3f 9eea 65bf e854 a9be
00000100: dcba eb3d 587b 703e 829f b93e 2b10 2a3f
00000110: fa0f bd3e 164e 0c3f 921f 3fbf 4e1e dd3e
00000120: 5e00 b13e 2c2c c7be 7575 c93e 2dd0 1f3f
00000130: f519 3fbf 5d70 3a3f 3fc1 1d3e 0dff 613f
00000140: d081 673f 6e19 9d3f 00b2 0b3f 458e 993e
00000150: 8aed ce3e 7602 073f 7540 12bf 9659 5d3e
00000160: bd42 533e 783e 2fbf 1eeb adbe 1397 eb3e
00000170: 7e14 b7be 2e15 3fbf d852 523f d006 a53e
00000180: 582a c13e b2c4 063f 176d 753e 94a6 283f
00000190: 9901 bdbd 9821 cc3e 58c5 fc3e 94e3 fbbe
000001a0: 03c6 1e3f 246b bdbe ec23 003e e5a5 87be
000001b0: 3afd d63e 44eb ecbe 27b6 2d3f 59ab 06bf
000001c0: 15e6 273f dc25 163f e2a7 0abf bef0 a43e
000001d0: 9627 d83e 3a47 b7be aa6b 23be 1480 88be
000001e0: b641 df3e 30e4 a8be 2472 1dbf 71b2 93be
000001f0: df78 b5bc 8741 d63e 71d9 ab3e b0e6 c43a
00000200: 39db 653f a1e9 523f e0ee cf3e 6ed1 ba3e
00000210: 23a4 903d 0348 04bd 5356 96be 2ca7 8dbe
00000220: 6044 1fbf 7f74 84be f056 38be ccbe b13e
00000230: c1f5 67be e26c 93be 22e1 1ebf 9d00 06bf
00000240: 414a aa3e b113 fcbe 393f 1fbf d0e8 643f
00000250: fada c3be 7161 33be 02df 9fbe c4ad 40be
00000260: 6fae dfbe 8077 853e a4d2 b13d 4ead 843f
00000270: c00c 36be 6dd1 66be c209 bb3e 4368 0c3f
00000280: 47c2 83be 9841 ea3e bd51 843d f02c 0ebe
00000290: fd62 b93d 9c73 b53e 4171 5e3e 520a c23e
000002a0: 0fb8 a33d 4321 823f d2e6 4b3e 0215 bebe
000002b0: 03a1 6e3d 566c b6be d85b 5e3e 0607 893f
000002c0: a8d6 a83e 4d44 3d3f a6ae 0b3f a152 883e
000002d0: 74f7 1abf 2f06 ed3d 3ad6 7b3e 9ade c5be
000002e0: 6a8a 9dbe 2188 8b3e f4eb 7d3e d498 a23e
000002f0: 82dd 34bf 26f5 b33e b1aa 26be db39 54be
00000300: aaf9 1fbe e41c d4be e416 253f 96ff b53e
00000310: af47 143e e8be f23e 58b1 25bf 8dac 3b3f
00000320: 35e6 8cbe 52fc 21be c89d e83e 3803 5abe
00000330: d1c4 0a3f 738b 80be 845b 213f f428 55be
00000340: 6973 f73e 3a14 febe 7f2d 0d3f bb0e f6be
00000350: 4f3e 07bf 3ab0 f2be b5ab e4bd 3048 83be
00000360: c6ea 163f 04ef fa3e c45f 473f 0548 29be
00000370: 28a3 063f a7c1 2c3f 86f5 4c3f f768 033f
00000380: 27a5 b0be 139d 18bf d0be 4a3f 3d13 1fbf
00000390: d221 00bf c57e b3bc a889 ce3c 4e51 a73e
000003a0: 3dac 523c 256e 92be 89ec dfbe 6b63 05bf
000003b0: 9daf 10be a13c 38be 1490 44be ef64 8dbe
000003c0: 06df cfbe ed1c 0cbf 761c 0cbf 0367 a73f
000003d0: 2e15 0cbf 5e19 0cbf 14b1 643d 096c f5be
000003e0: 1a5b 38be a6c7 17bf c1c7 20be cf4c e4be
000003f0: 5e63 b03e d165 073f 4418 0cbf 117c eebe
1.0689057 -0.03461598 0.18615931 0.20214495 -0.5763835 0.29718882 -0.42639288 0.7458149
-0.34772748 0.08410728 -0.61380756 0.19928676 -0.3945398 0.4169718 0.43664643 -0.5106757
0.3636849 0.15763569 -0.523783 -0.21972825 -0.15584889 0.28288695 0.102148585 0.22030985
-0.040149733 -0.2018779 0.9505694 1.248006 -0.3146413 0.8681752 0.9768695 0.1748947
0.4426344 -0.29491806 0.25993174 0.19776313 0.29428992 0.64884484 0.27740014 0.49763215
0.11056564 0.31830978 0.2972953 0.51098716 0.42097726 -0.34508726 0.59710443 0.63518304
0.20991741 0.3793984 0.44873562 0.38675803 0.2991965 0.19424613 -0.060274947 0.18461682
0.6943294 0.3837323 0.40386435 0.19750118 0.09829709 0.6106205 -0.8981112 -0.3307259
0.1151025 0.23484552 0.36254507 0.6643092 0.36926252 0.5480665 -0.7465755 0.43187183
0.34570593 -0.38900888 0.39347425 0.62427026 -0.7464898 0.728277 0.15405749 0.882798
0.90432453 1.2273386 0.5456848 0.29991356 0.40415603 0.5273813 -0.57129604 0.21616206
0.20630927 -0.68454695 -0.33968443 0.46013698 -0.35757822 -0.7464169 0.8215766 0.3223176
0.37727618 0.52643883 0.23967396 0.6587918 -0.0922882 0.3986938 0.4936931 -0.49197066
0.6202089 -0.36995804 0.12513703 -0.26493755 0.41990072 -0.46273243 0.6785607 -0.52605206
0.6558545 0.5865152 -0.5416242 0.32214922 0.42217702 -0.3579653 -0.1595904 -0.26660216
0.4360482 -0.32986593 -0.6150229 -0.28847077 -0.022152362 0.41846868 0.33564332 0.0015022364
0.8978763 0.8238774 0.40611935 0.36487907 0.070625566 -0.03229524 -0.29362735 -0.27666605
-0.62213707 -0.2587013 -0.18001914 0.3471588 -0.22652341 -0.28794008 -0.62062275 -0.52344686
0.33259776 -0.49233773 -0.62205845 0.89417744 -0.38253003 -0.1751764 -0.3122483 -0.18816286
-0.4368777 0.26067734 0.08682755 1.0365388 -0.17778301 -0.22540827 0.36530882 0.5484659
-0.2573416 0.4575317 0.06460903 -0.1388433 0.09052084 0.35439765 0.2172289 0.378985
0.07994091 1.0166401 0.1991227 -0.37125403 0.05825902 -0.3562953 0.21714723 1.0705268
0.3297627 0.73932344 0.5456337 0.2662554 -0.60533834 0.11573445 0.2459344 -0.38646394
-0.30769664 0.27252296 0.2479704 0.31757224 -0.70650494 0.3514797 -0.16276051 -0.20725195
-0.15622583 -0.41428292 0.64488053 0.3554656 0.1448047 0.47411275 -0.6472373 0.73310167
-0.27519384 -0.15818909 0.45432878 -0.2129029 0.5420657 -0.2510639 0.63030267 -0.20816404
0.48330238 -0.49624807 0.55147547 -0.48058113 -0.5282945 -0.47400075 -0.11165563 -0.25641012
0.58951986 0.4901048 0.778805 -0.1653138 0.52592707 0.6748299 0.8006214 0.5133204
-0.34501 -0.59614676 0.79197407 -0.6213873 -0.50051606 -0.021911034 0.025212124 0.32679218
0.012858448 -0.2859966 -0.4373515 -0.52104825 -0.14129491 -0.17991878 -0.19195586 -0.2761607
-0.4059984 -0.5473164 -0.5473093 1.3078312 -0.5471982 -0.5472621 0.055832937 -0.47933987
-0.18003502 -0.59289014 -0.157012 -0.4458985 0.3445081 0.52889735 -0.54724526 -0.4657903

l1.bias f4 [8]
00000000: fd0a 433f ca80 783f 211e 3f3f 4572 1d3f
00000010: 0b42 1f3f d6dc 343f b19f 183f 591a 0c3f
0.7618864 0.97071517 0.7465535 0.61502486 0.6221015 0.7064947 0.5961867 0.54727703

l2.weight f4 [8, 8]
00000000: ae25 ea3e 3294 8e3f f08a 6c3f 3fa4 17bc
00000010: a4c0 a63e 3222 51bf 9ae9 43bf 8e0e 89bf
00000020: 58a8 553f c6cd 873f a9c0 b0bf b4f1 ecbd
00000030: 46d7 1b3f c36f 843d e610 143f 1ebb 64bf
00000040: ecf7 e03d 9eda 08be 204f f2bd a12d acbe
00000050: a4d7 27be da71 383e b7ea 4f3d 4e2a c0bd
00000060: 67a6 95bf 9656 153f 14de 153f bb9f 99bf
00000070: 0b55 15be 087b 533f f1a0 8f3f 4cb2 943f
00000080: 5a0f 8cbe e6da 873f c530 f63e 6870 153f
00000090: 7d83 a1bf c386 593f ff75 c33e cfdf 63bf
000000a0: eaf5 8d3d f13d 49bd feb1 28be 569a 4fbe
000000b0: d307 303e d804 3abd 2147 6cbe 8cbf 3ebe
000000c0: 2df6 02bf 686f 853f 5a69 983f 71e7 2bbf
000000d0: 20f6 8c3f b106 b0bf 2079 393f cbc2 65bf
000000e0: 5a1d 813f e71e fabd 8c59 9c3f 4784 a83f
000000f0: f333 883e 6f0f 933f 5448 9abf 72c3 863f
0.45731872 1.1138976 0.923995 -0.009255468 0.32568848 -0.816928 -0.7652832 -1.0707567
0.8346 1.0609672 -1.3808795 -0.11569539 0.60875356 0.06466629 0.57838285 -0.8934802
0.10984787 -0.13364646 -0.11831498 -0.33628562 -0.16390854 0.18012181 0.05076095 -0.09383069
-1.1691407 0.58335245 0.5854199 -1.2001871 -0.14583223 0.82609606 1.122099 1.1616912
-0.27355462 1.0613678 0.48084083 0.58374643 -1.2618252 0.84971255 0.3817596 -0.8901338
0.0693167 -0.049131338 -0.16474149 -0.20273718 0.17190485 -0.045414776 -0.23074009 -0.18627757
-0.51156884 1.0424623 1.1907151 -0.67150027 1.1012611 -1.3752042 0.7245045 -0.89750355
1.0087082 -0.122129254 1.2214828 1.3165368 0.26602134 1.1489085 -1.2053323 1.0528395

l2.bias f4 [8]
00000000: 1874 0f3f da76 4f3f 42c0 11be 1d55 a03e
00000010: 7480 103e df37 40be 0229 963e d062 243f
0.5603652 0.8104073 -0.14233497 0.31314936 0.14111501 -0.18771313 0.2932816 0.64213276

l3.weight f4 [8, 8]
00000000: 6506 ddbe fff4 7abf 45a5 783e 81de dc3e
00000010: c3ec 953e ed0c 8b3e d103 013f 5fb0 a8bf
00000020: bc3d 49bf 325f 053f 26a3 a23d 640a 393e
00000030: f31e 683f 0b84 68bc 353b 82bf 6871 61bf
00000040: 43a4 963e fd93 1abf 8e9a e63d 5cfb adbf
00000050: 9892 733f 224c acbd 6f8f 55bf 4dac 0a3e
00000060: 5cb1 523e 35db 6d3f 46d5 babd 8b8f a1bf
00000070: 7468 9bbf b348 893d baaf 1c3f 808a 86bf
00000080: a957 69bf a0c3 49bf 29ec 88be 2942 553f
00000090: 8ab3 b1bf 687d cd3d bab3 8fbf 5386 ce3d
000000a0: 4bdf 96bf 6e53 97bf 5c9b d3bc 6b3b a6bf
000000b0: 4d07 b7bf e11e 223e 795d 4cbf 82a4 6a3f
000000c0: 6e90 c73e 918c b1bf 845a 863e da0b 30be
000000d0: bf4b c6bf 1ad2 9ebd b601 473f c699 a0be
000000e0: f747 ee3e 7dc1 943f 3e42 de3c 32ba adbf
000000f0: 2748 d0bf 6b27 54be bc2e e0bf 40dd e63d
-0.4316894 -0.98030084 0.24281795 0.43138507 0.29282197 0.271583 0.5039645 -1.3178824
-0.78609824 0.5209838 0.07941274 0.1807037 0.90672225 -0.014191638 -1.0174319 -0.8806367
0.29422197 -0.6038206 0.11259948 -1.3592334 0.9514556 -0.08412959 -0.8342199 0.1354229
0.2057547 0.9291261 -0.0912271 -1.2621931 -1.2141252 0.067033194 0.6120564 -1.0511017
-0.91149384 -0.78814125 -0.26742676 0.8330408 -1.3882916 0.10033685 -1.1226723 0.10084214
-1.1786894 -1.1822336 -0.025830917 -1.2986883 -1.4299103 0.15832092 -0.7983013 0.9165727
0.3897738 -1.3871022 0.26240933 -0.17192021 -1.5491866 -0.077549174 0.77736986 -0.3136732
0.4653928 1.1621548 0.027131196 -1.3572447 -1.6272019 -0.20718162 -1.7514262 0.11272669

l3.bias f4 [8]
00000000: a8a1 35bf 9d7a 483d f537 7fbe 563b ddbd
00000010: 294f 863e c1a0 f1bc 7f73 5d3e 5fc9 d43d
-0.7094979 0.048945058 -0.2492369 -0.10802333 0.2623227 -0.029495599 0.2162609 0.10389971
